Files already downloaded and verified
Files already downloaded and verified
planes 16
(32, 32)
planes 16
(32, 32)
planes 16
(32, 32)
planes 16
(32, 32)
planes 24
(32, 32)
planes 24
(32, 32)
planes 24
(32, 32)
planes 24
(32, 32)
planes 48
(16, 16)
planes 48
(16, 16)
planes 48
(16, 16)
planes 48
(16, 16)
ResNet32MoEModel(
  (backbone): ResNet_s_MoE(
    (conv1): Conv2d(3, 16, kernel_size=(3, 3), stride=(1, 1), padding=(1, 1), bias=False)
    (bn1): BatchNorm2d(16, eps=1e-05, momentum=0.1, affine=True, track_running_stats=True)
    (layer1): Sequential(
      (0): BasicBlock(
        (conv1): Conv2d(16, 16, kernel_size=(3, 3), stride=(1, 1), padding=(1, 1), bias=False)
        (bn1): BatchNorm2d(16, eps=1e-05, momentum=0.1, affine=True, track_running_stats=True)
        (conv2): Conv2d(16, 16, kernel_size=(3, 3), stride=(1, 1), padding=(1, 1), bias=False)
        (bn2): BatchNorm2d(16, eps=1e-05, momentum=0.1, affine=True, track_running_stats=True)
        (shortcut): Sequential()
      )
      (1): CustomizedMoEBasicBlock(
        (experts): ModuleList(
          (0): _Expert(
            (conv): Conv2d(16, 16, kernel_size=(3, 3), stride=(1, 1), padding=(1, 1))
          )
          (1): _Expert(
            (conv): Conv2d(16, 16, kernel_size=(3, 3), stride=(1, 1), padding=(1, 1))
          )
          (2): _Expert(
            (conv): Conv2d(16, 16, kernel_size=(3, 3), stride=(1, 1), padding=(1, 1))
          )
          (3): _Expert(
            (conv): Conv2d(16, 16, kernel_size=(3, 3), stride=(1, 1), padding=(1, 1))
          )
          (4): _Expert(
            (conv): Conv2d(16, 16, kernel_size=(3, 3), stride=(1, 1), padding=(1, 1))
          )
          (5): _Expert(
            (conv): Conv2d(16, 16, kernel_size=(3, 3), stride=(1, 1), padding=(1, 1))
          )
          (6): _Expert(
            (conv): Conv2d(16, 16, kernel_size=(3, 3), stride=(1, 1), padding=(1, 1))
          )
          (7): _Expert(
            (conv): Conv2d(16, 16, kernel_size=(3, 3), stride=(1, 1), padding=(1, 1))
          )
        )
        (gate): NaiveGate(
          (gate): Linear(in_features=16384, out_features=8, bias=True)
        )
        (conv1): Conv2d(16, 16, kernel_size=(3, 3), stride=(1, 1), padding=(1, 1))
        (shortcut): Sequential()
        (bn1): BatchNorm2d(16, eps=1e-05, momentum=0.1, affine=True, track_running_stats=True)
        (bn2): BatchNorm2d(16, eps=1e-05, momentum=0.1, affine=True, track_running_stats=True)
      )
      (2): CustomizedMoEBasicBlock(
        (experts): ModuleList(
          (0): _Expert(
            (conv): Conv2d(16, 16, kernel_size=(3, 3), stride=(1, 1), padding=(1, 1))
          )
          (1): _Expert(
            (conv): Conv2d(16, 16, kernel_size=(3, 3), stride=(1, 1), padding=(1, 1))
          )
          (2): _Expert(
            (conv): Conv2d(16, 16, kernel_size=(3, 3), stride=(1, 1), padding=(1, 1))
          )
          (3): _Expert(
            (conv): Conv2d(16, 16, kernel_size=(3, 3), stride=(1, 1), padding=(1, 1))
          )
          (4): _Expert(
            (conv): Conv2d(16, 16, kernel_size=(3, 3), stride=(1, 1), padding=(1, 1))
          )
          (5): _Expert(
            (conv): Conv2d(16, 16, kernel_size=(3, 3), stride=(1, 1), padding=(1, 1))
          )
          (6): _Expert(
            (conv): Conv2d(16, 16, kernel_size=(3, 3), stride=(1, 1), padding=(1, 1))
          )
          (7): _Expert(
            (conv): Conv2d(16, 16, kernel_size=(3, 3), stride=(1, 1), padding=(1, 1))
          )
        )
        (gate): NaiveGate(
          (gate): Linear(in_features=16384, out_features=8, bias=True)
        )
        (conv1): Conv2d(16, 16, kernel_size=(3, 3), stride=(1, 1), padding=(1, 1))
        (shortcut): Sequential()
        (bn1): BatchNorm2d(16, eps=1e-05, momentum=0.1, affine=True, track_running_stats=True)
        (bn2): BatchNorm2d(16, eps=1e-05, momentum=0.1, affine=True, track_running_stats=True)
      )
      (3): CustomizedMoEBasicBlock(
        (experts): ModuleList(
          (0): _Expert(
            (conv): Conv2d(16, 16, kernel_size=(3, 3), stride=(1, 1), padding=(1, 1))
          )
          (1): _Expert(
            (conv): Conv2d(16, 16, kernel_size=(3, 3), stride=(1, 1), padding=(1, 1))
          )
          (2): _Expert(
            (conv): Conv2d(16, 16, kernel_size=(3, 3), stride=(1, 1), padding=(1, 1))
          )
          (3): _Expert(
            (conv): Conv2d(16, 16, kernel_size=(3, 3), stride=(1, 1), padding=(1, 1))
          )
          (4): _Expert(
            (conv): Conv2d(16, 16, kernel_size=(3, 3), stride=(1, 1), padding=(1, 1))
          )
          (5): _Expert(
            (conv): Conv2d(16, 16, kernel_size=(3, 3), stride=(1, 1), padding=(1, 1))
          )
          (6): _Expert(
            (conv): Conv2d(16, 16, kernel_size=(3, 3), stride=(1, 1), padding=(1, 1))
          )
          (7): _Expert(
            (conv): Conv2d(16, 16, kernel_size=(3, 3), stride=(1, 1), padding=(1, 1))
          )
        )
        (gate): NaiveGate(
          (gate): Linear(in_features=16384, out_features=8, bias=True)
        )
        (conv1): Conv2d(16, 16, kernel_size=(3, 3), stride=(1, 1), padding=(1, 1))
        (shortcut): Sequential()
        (bn1): BatchNorm2d(16, eps=1e-05, momentum=0.1, affine=True, track_running_stats=True)
        (bn2): BatchNorm2d(16, eps=1e-05, momentum=0.1, affine=True, track_running_stats=True)
      )
      (4): CustomizedMoEBasicBlock(
        (experts): ModuleList(
          (0): _Expert(
            (conv): Conv2d(16, 16, kernel_size=(3, 3), stride=(1, 1), padding=(1, 1))
          )
          (1): _Expert(
            (conv): Conv2d(16, 16, kernel_size=(3, 3), stride=(1, 1), padding=(1, 1))
          )
          (2): _Expert(
            (conv): Conv2d(16, 16, kernel_size=(3, 3), stride=(1, 1), padding=(1, 1))
          )
          (3): _Expert(
            (conv): Conv2d(16, 16, kernel_size=(3, 3), stride=(1, 1), padding=(1, 1))
          )
          (4): _Expert(
            (conv): Conv2d(16, 16, kernel_size=(3, 3), stride=(1, 1), padding=(1, 1))
          )
          (5): _Expert(
            (conv): Conv2d(16, 16, kernel_size=(3, 3), stride=(1, 1), padding=(1, 1))
          )
          (6): _Expert(
            (conv): Conv2d(16, 16, kernel_size=(3, 3), stride=(1, 1), padding=(1, 1))
          )
          (7): _Expert(
            (conv): Conv2d(16, 16, kernel_size=(3, 3), stride=(1, 1), padding=(1, 1))
          )
        )
        (gate): NaiveGate(
          (gate): Linear(in_features=16384, out_features=8, bias=True)
        )
        (conv1): Conv2d(16, 16, kernel_size=(3, 3), stride=(1, 1), padding=(1, 1))
        (shortcut): Sequential()
        (bn1): BatchNorm2d(16, eps=1e-05, momentum=0.1, affine=True, track_running_stats=True)
        (bn2): BatchNorm2d(16, eps=1e-05, momentum=0.1, affine=True, track_running_stats=True)
      )
    )
    (layer2): Sequential(
      (0): BasicBlock(
        (conv1): Conv2d(16, 24, kernel_size=(3, 3), stride=(2, 2), padding=(1, 1), bias=False)
        (bn1): BatchNorm2d(24, eps=1e-05, momentum=0.1, affine=True, track_running_stats=True)
        (conv2): Conv2d(24, 24, kernel_size=(3, 3), stride=(1, 1), padding=(1, 1), bias=False)
        (bn2): BatchNorm2d(24, eps=1e-05, momentum=0.1, affine=True, track_running_stats=True)
        (shortcut): LambdaLayer()
      )
      (1): CustomizedMoEBasicBlock(
        (experts): ModuleList(
          (0): _Expert(
            (conv): Conv2d(24, 24, kernel_size=(3, 3), stride=(1, 1), padding=(1, 1))
          )
          (1): _Expert(
            (conv): Conv2d(24, 24, kernel_size=(3, 3), stride=(1, 1), padding=(1, 1))
          )
          (2): _Expert(
            (conv): Conv2d(24, 24, kernel_size=(3, 3), stride=(1, 1), padding=(1, 1))
          )
          (3): _Expert(
            (conv): Conv2d(24, 24, kernel_size=(3, 3), stride=(1, 1), padding=(1, 1))
          )
          (4): _Expert(
            (conv): Conv2d(24, 24, kernel_size=(3, 3), stride=(1, 1), padding=(1, 1))
          )
          (5): _Expert(
            (conv): Conv2d(24, 24, kernel_size=(3, 3), stride=(1, 1), padding=(1, 1))
          )
          (6): _Expert(
            (conv): Conv2d(24, 24, kernel_size=(3, 3), stride=(1, 1), padding=(1, 1))
          )
          (7): _Expert(
            (conv): Conv2d(24, 24, kernel_size=(3, 3), stride=(1, 1), padding=(1, 1))
          )
        )
        (gate): NaiveGate(
          (gate): Linear(in_features=6144, out_features=8, bias=True)
        )
        (conv1): Conv2d(24, 24, kernel_size=(3, 3), stride=(1, 1), padding=(1, 1))
        (shortcut): Sequential()
        (bn1): BatchNorm2d(24, eps=1e-05, momentum=0.1, affine=True, track_running_stats=True)
        (bn2): BatchNorm2d(24, eps=1e-05, momentum=0.1, affine=True, track_running_stats=True)
      )
      (2): CustomizedMoEBasicBlock(
        (experts): ModuleList(
          (0): _Expert(
            (conv): Conv2d(24, 24, kernel_size=(3, 3), stride=(1, 1), padding=(1, 1))
          )
          (1): _Expert(
            (conv): Conv2d(24, 24, kernel_size=(3, 3), stride=(1, 1), padding=(1, 1))
          )
          (2): _Expert(
            (conv): Conv2d(24, 24, kernel_size=(3, 3), stride=(1, 1), padding=(1, 1))
          )
          (3): _Expert(
            (conv): Conv2d(24, 24, kernel_size=(3, 3), stride=(1, 1), padding=(1, 1))
          )
          (4): _Expert(
            (conv): Conv2d(24, 24, kernel_size=(3, 3), stride=(1, 1), padding=(1, 1))
          )
          (5): _Expert(
            (conv): Conv2d(24, 24, kernel_size=(3, 3), stride=(1, 1), padding=(1, 1))
          )
          (6): _Expert(
            (conv): Conv2d(24, 24, kernel_size=(3, 3), stride=(1, 1), padding=(1, 1))
          )
          (7): _Expert(
            (conv): Conv2d(24, 24, kernel_size=(3, 3), stride=(1, 1), padding=(1, 1))
          )
        )
        (gate): NaiveGate(
          (gate): Linear(in_features=6144, out_features=8, bias=True)
        )
        (conv1): Conv2d(24, 24, kernel_size=(3, 3), stride=(1, 1), padding=(1, 1))
        (shortcut): Sequential()
        (bn1): BatchNorm2d(24, eps=1e-05, momentum=0.1, affine=True, track_running_stats=True)
        (bn2): BatchNorm2d(24, eps=1e-05, momentum=0.1, affine=True, track_running_stats=True)
      )
      (3): CustomizedMoEBasicBlock(
        (experts): ModuleList(
          (0): _Expert(
            (conv): Conv2d(24, 24, kernel_size=(3, 3), stride=(1, 1), padding=(1, 1))
          )
          (1): _Expert(
            (conv): Conv2d(24, 24, kernel_size=(3, 3), stride=(1, 1), padding=(1, 1))
          )
          (2): _Expert(
            (conv): Conv2d(24, 24, kernel_size=(3, 3), stride=(1, 1), padding=(1, 1))
          )
          (3): _Expert(
            (conv): Conv2d(24, 24, kernel_size=(3, 3), stride=(1, 1), padding=(1, 1))
          )
          (4): _Expert(
            (conv): Conv2d(24, 24, kernel_size=(3, 3), stride=(1, 1), padding=(1, 1))
          )
          (5): _Expert(
            (conv): Conv2d(24, 24, kernel_size=(3, 3), stride=(1, 1), padding=(1, 1))
          )
          (6): _Expert(
            (conv): Conv2d(24, 24, kernel_size=(3, 3), stride=(1, 1), padding=(1, 1))
          )
          (7): _Expert(
            (conv): Conv2d(24, 24, kernel_size=(3, 3), stride=(1, 1), padding=(1, 1))
          )
        )
        (gate): NaiveGate(
          (gate): Linear(in_features=6144, out_features=8, bias=True)
        )
        (conv1): Conv2d(24, 24, kernel_size=(3, 3), stride=(1, 1), padding=(1, 1))
        (shortcut): Sequential()
        (bn1): BatchNorm2d(24, eps=1e-05, momentum=0.1, affine=True, track_running_stats=True)
        (bn2): BatchNorm2d(24, eps=1e-05, momentum=0.1, affine=True, track_running_stats=True)
      )
      (4): CustomizedMoEBasicBlock(
        (experts): ModuleList(
          (0): _Expert(
            (conv): Conv2d(24, 24, kernel_size=(3, 3), stride=(1, 1), padding=(1, 1))
          )
          (1): _Expert(
            (conv): Conv2d(24, 24, kernel_size=(3, 3), stride=(1, 1), padding=(1, 1))
          )
          (2): _Expert(
            (conv): Conv2d(24, 24, kernel_size=(3, 3), stride=(1, 1), padding=(1, 1))
          )
          (3): _Expert(
            (conv): Conv2d(24, 24, kernel_size=(3, 3), stride=(1, 1), padding=(1, 1))
          )
          (4): _Expert(
            (conv): Conv2d(24, 24, kernel_size=(3, 3), stride=(1, 1), padding=(1, 1))
          )
          (5): _Expert(
            (conv): Conv2d(24, 24, kernel_size=(3, 3), stride=(1, 1), padding=(1, 1))
          )
          (6): _Expert(
            (conv): Conv2d(24, 24, kernel_size=(3, 3), stride=(1, 1), padding=(1, 1))
          )
          (7): _Expert(
            (conv): Conv2d(24, 24, kernel_size=(3, 3), stride=(1, 1), padding=(1, 1))
          )
        )
        (gate): NaiveGate(
          (gate): Linear(in_features=6144, out_features=8, bias=True)
        )
        (conv1): Conv2d(24, 24, kernel_size=(3, 3), stride=(1, 1), padding=(1, 1))
        (shortcut): Sequential()
        (bn1): BatchNorm2d(24, eps=1e-05, momentum=0.1, affine=True, track_running_stats=True)
        (bn2): BatchNorm2d(24, eps=1e-05, momentum=0.1, affine=True, track_running_stats=True)
      )
    )
    (layer3): Sequential(
      (0): BasicBlock(
        (conv1): Conv2d(24, 48, kernel_size=(3, 3), stride=(2, 2), padding=(1, 1), bias=False)
        (bn1): BatchNorm2d(48, eps=1e-05, momentum=0.1, affine=True, track_running_stats=True)
        (conv2): Conv2d(48, 48, kernel_size=(3, 3), stride=(1, 1), padding=(1, 1), bias=False)
        (bn2): BatchNorm2d(48, eps=1e-05, momentum=0.1, affine=True, track_running_stats=True)
        (shortcut): LambdaLayer()
      )
      (1): CustomizedMoEBasicBlock(
        (experts): ModuleList(
          (0): _Expert(
            (conv): Conv2d(48, 48, kernel_size=(3, 3), stride=(1, 1), padding=(1, 1))
          )
          (1): _Expert(
            (conv): Conv2d(48, 48, kernel_size=(3, 3), stride=(1, 1), padding=(1, 1))
          )
          (2): _Expert(
            (conv): Conv2d(48, 48, kernel_size=(3, 3), stride=(1, 1), padding=(1, 1))
          )
          (3): _Expert(
            (conv): Conv2d(48, 48, kernel_size=(3, 3), stride=(1, 1), padding=(1, 1))
          )
          (4): _Expert(
            (conv): Conv2d(48, 48, kernel_size=(3, 3), stride=(1, 1), padding=(1, 1))
          )
          (5): _Expert(
            (conv): Conv2d(48, 48, kernel_size=(3, 3), stride=(1, 1), padding=(1, 1))
          )
          (6): _Expert(
            (conv): Conv2d(48, 48, kernel_size=(3, 3), stride=(1, 1), padding=(1, 1))
          )
          (7): _Expert(
            (conv): Conv2d(48, 48, kernel_size=(3, 3), stride=(1, 1), padding=(1, 1))
          )
        )
        (gate): NaiveGate(
          (gate): Linear(in_features=3072, out_features=8, bias=True)
        )
        (conv1): Conv2d(48, 48, kernel_size=(3, 3), stride=(1, 1), padding=(1, 1))
        (shortcut): Sequential()
        (bn1): BatchNorm2d(48, eps=1e-05, momentum=0.1, affine=True, track_running_stats=True)
        (bn2): BatchNorm2d(48, eps=1e-05, momentum=0.1, affine=True, track_running_stats=True)
      )
      (2): CustomizedMoEBasicBlock(
        (experts): ModuleList(
          (0): _Expert(
            (conv): Conv2d(48, 48, kernel_size=(3, 3), stride=(1, 1), padding=(1, 1))
          )
          (1): _Expert(
            (conv): Conv2d(48, 48, kernel_size=(3, 3), stride=(1, 1), padding=(1, 1))
          )
          (2): _Expert(
            (conv): Conv2d(48, 48, kernel_size=(3, 3), stride=(1, 1), padding=(1, 1))
          )
          (3): _Expert(
            (conv): Conv2d(48, 48, kernel_size=(3, 3), stride=(1, 1), padding=(1, 1))
          )
          (4): _Expert(
            (conv): Conv2d(48, 48, kernel_size=(3, 3), stride=(1, 1), padding=(1, 1))
          )
          (5): _Expert(
            (conv): Conv2d(48, 48, kernel_size=(3, 3), stride=(1, 1), padding=(1, 1))
          )
          (6): _Expert(
            (conv): Conv2d(48, 48, kernel_size=(3, 3), stride=(1, 1), padding=(1, 1))
          )
          (7): _Expert(
            (conv): Conv2d(48, 48, kernel_size=(3, 3), stride=(1, 1), padding=(1, 1))
          )
        )
        (gate): NaiveGate(
          (gate): Linear(in_features=3072, out_features=8, bias=True)
        )
        (conv1): Conv2d(48, 48, kernel_size=(3, 3), stride=(1, 1), padding=(1, 1))
        (shortcut): Sequential()
        (bn1): BatchNorm2d(48, eps=1e-05, momentum=0.1, affine=True, track_running_stats=True)
        (bn2): BatchNorm2d(48, eps=1e-05, momentum=0.1, affine=True, track_running_stats=True)
      )
      (3): CustomizedMoEBasicBlock(
        (experts): ModuleList(
          (0): _Expert(
            (conv): Conv2d(48, 48, kernel_size=(3, 3), stride=(1, 1), padding=(1, 1))
          )
          (1): _Expert(
            (conv): Conv2d(48, 48, kernel_size=(3, 3), stride=(1, 1), padding=(1, 1))
          )
          (2): _Expert(
            (conv): Conv2d(48, 48, kernel_size=(3, 3), stride=(1, 1), padding=(1, 1))
          )
          (3): _Expert(
            (conv): Conv2d(48, 48, kernel_size=(3, 3), stride=(1, 1), padding=(1, 1))
          )
          (4): _Expert(
            (conv): Conv2d(48, 48, kernel_size=(3, 3), stride=(1, 1), padding=(1, 1))
          )
          (5): _Expert(
            (conv): Conv2d(48, 48, kernel_size=(3, 3), stride=(1, 1), padding=(1, 1))
          )
          (6): _Expert(
            (conv): Conv2d(48, 48, kernel_size=(3, 3), stride=(1, 1), padding=(1, 1))
          )
          (7): _Expert(
            (conv): Conv2d(48, 48, kernel_size=(3, 3), stride=(1, 1), padding=(1, 1))
          )
        )
        (gate): NaiveGate(
          (gate): Linear(in_features=3072, out_features=8, bias=True)
        )
        (conv1): Conv2d(48, 48, kernel_size=(3, 3), stride=(1, 1), padding=(1, 1))
        (shortcut): Sequential()
        (bn1): BatchNorm2d(48, eps=1e-05, momentum=0.1, affine=True, track_running_stats=True)
        (bn2): BatchNorm2d(48, eps=1e-05, momentum=0.1, affine=True, track_running_stats=True)
      )
      (4): CustomizedMoEBasicBlock(
        (experts): ModuleList(
          (0): _Expert(
            (conv): Conv2d(48, 48, kernel_size=(3, 3), stride=(1, 1), padding=(1, 1))
          )
          (1): _Expert(
            (conv): Conv2d(48, 48, kernel_size=(3, 3), stride=(1, 1), padding=(1, 1))
          )
          (2): _Expert(
            (conv): Conv2d(48, 48, kernel_size=(3, 3), stride=(1, 1), padding=(1, 1))
          )
          (3): _Expert(
            (conv): Conv2d(48, 48, kernel_size=(3, 3), stride=(1, 1), padding=(1, 1))
          )
          (4): _Expert(
            (conv): Conv2d(48, 48, kernel_size=(3, 3), stride=(1, 1), padding=(1, 1))
          )
          (5): _Expert(
            (conv): Conv2d(48, 48, kernel_size=(3, 3), stride=(1, 1), padding=(1, 1))
          )
          (6): _Expert(
            (conv): Conv2d(48, 48, kernel_size=(3, 3), stride=(1, 1), padding=(1, 1))
          )
          (7): _Expert(
            (conv): Conv2d(48, 48, kernel_size=(3, 3), stride=(1, 1), padding=(1, 1))
          )
        )
        (gate): NaiveGate(
          (gate): Linear(in_features=3072, out_features=8, bias=True)
        )
        (conv1): Conv2d(48, 48, kernel_size=(3, 3), stride=(1, 1), padding=(1, 1))
        (shortcut): Sequential()
        (bn1): BatchNorm2d(48, eps=1e-05, momentum=0.1, affine=True, track_running_stats=True)
        (bn2): BatchNorm2d(48, eps=1e-05, momentum=0.1, affine=True, track_running_stats=True)
      )
    )
    (linear): NormedLinear()
  )
)
Train Epoch: 1 [0/97 (0%)] Loss: 11.994727 max group LR: 0.1000 min group LR: 0.1000
Train Epoch: 1 [11/97 (11%)] Loss: 7.472723 max group LR: 0.1000 min group LR: 0.1000
Train Epoch: 1 [22/97 (23%)] Loss: 6.333564 max group LR: 0.1000 min group LR: 0.1000
Train Epoch: 1 [33/97 (34%)] Loss: 6.726103 max group LR: 0.1000 min group LR: 0.1000
…
